checkpoint_critic_3.pth (torch_old, 542606 bytes, 5 tensors)

fcs1.weight f4 [400, 33]
000000 28 df 96 b9 6a fc f0 3b cf 30 3b ba dd 25 6d bb
       -0.00028776494 0.007354309 -0.0007140757 -0.0036185898
000010 52 b2 17 3a 3b e0 79 b8 d5 9c 6e ba 96 69 35 39
       0.00057867647 -5.9575057e-05 -0.0009102349 0.00017300839
000020 29 e9 ba ba 9d da b8 ba 81 13 3e bb b1 d6 9a bb
       -0.0014260161 -0.0014103238 -0.0029003324 -0.0047253002
000030 03 e5 e0 3b 46 18 3f 39 c3 ab d3 3b dd a9 3f b9
       0.006863238 0.00018224222 0.0064596846 -0.00018278458
000040 b3 b6 67 b9 b2 d9 49 3b 89 8b 93 ba 3b b4 73 ba
       -0.00022097937 0.0030799923 -0.0011256795 -0.0009296571
000050 ae 3d 21 bb 87 ea 75 3a c0 89 01 ba 4e f4 a7 39
       -0.0024603414 0.00093809556 -0.0004941486 0.00032034743
000060 f7 b5 e4 3b 08 8e 8b 3b 09 40 19 3a 28 83 ed 3b
       0.0069796997 0.004258875 0.0005846029 0.007248301
000070 16 41 2b ba 41 05 03 80 28 83 ed bb 08 4f 02 80
       -0.0006532831 -2.77391e-40 -0.007248301 -2.12022e-40
000080 60 9c f0 3a ab d8 9d 3d 62 26 4b 3d d6 7c 88 bc
       0.001835715 0.07707342 0.04959715 -0.016661089
000090 89 71 dc bd 9e 13 0c 3c b0 20 66 bc 65 b4 f5 bc
       -0.107638426 0.008549599 -0.014045879 -0.029993245
0000a0 b6 96 2d 3c 6d 78 ca 3c 0f 05 16 bd 95 d4 dd 3b
       0.010595014 0.024715627 -0.036625918 0.0067697265
0000b0 f7 73 a1 3c 50 ff 70 bb f5 6d 5b 3d e6 1e 68 3b
       0.019708617 -0.0036773272 0.05357166 0.0035418808
0000c0 e3 2b 5c b9 43 ad 76 bc fe fc 6b 3c c1 f0 27 bd
       -0.00020997184 -0.015055957 0.01440358 -0.041001085
0000d0 c1 3e 7f bd 29 05 9e 3b c4 0b d2 3b 54 0d 12 bd
       -0.062315706 0.0048223925 0.006410094 -0.035657242
0000e0 5d 62 5d bd e2 0d a5 3b cd 20 ca ba 3b 72 34 bd
       -0.054048885 0.0050370554 -0.0015421152 -0.04405425
0000f0 f6 a5 f4 3c 59 85 48 3d 5d 4d 01 00 f6 a5 f4 bc
       0.029864293 0.048955295 1.19588e-40 -0.029864293
000100 ab f9 01 00 e1 17 26 3e ec 70 37 3b d9 41 19 3d
       1.814e-40 0.16220047 0.002799089 0.037416313
000110 a0 bf d2 bb 46 7c 90 bc 9f 9d b4 3c 1b 42 a0 3c
       -0.006431535 -0.017637383 0.022047816 0.019562772
000120 7f d0 38 bc ff 56 f0 3c 34 98 6c 3b 24 13 c4 3c
       -0.011280178 0.029338358 0.0036101462 0.023934908
000130 ee 29 64 3d 11 8b d2 bc 39 54 47 3c fe 91 d6 3c
       0.05570405 -0.025701078 0.012166076 0.026192661
000140 0f 5c 4c 3c 38 42 cc 3c e4 d0 46 bc 3b e5 58 bc
       0.01247312 0.02493392 -0.012134764 -0.013238247
000150 35 2e 2c bd 44 75 67 3c 7d e1 de 3c 85 47 82 bd
       -0.042036254 0.014127079 0.02720713 -0.063612975
000160 05 90 d4 bc 05 7b 13 3d 64 19 59 3c 3d ef 14 bd
       -0.02594758 0.036005992 0.0132506825 -0.036360968
000170 ea 57 88 bc 49 1e 53 3d bf 06 94 bc 2f 7c 00 00
       -0.016643483 0.051542554 -0.018069623 4.4549e-41
000180 49 1e 53 bd a0 dc 01 00 16 23 76 bc a2 a2 04 bd
       -0.051542554 1.70981e-40 -0.015023014 -0.03238166
000190 62 ac 88 3d 9b 15 50 bb 04 94 52 bd 83 f9 98 bc
       0.066735044 -0.003175116 -0.05141069 -0.018673664
0001a0 5b 5e 11 3c 46 1a 51 bc 5f cd 0c 3c 33 ac c6 bc
       0.008872594 -0.012762612 0.008593886 -0.024252033
0001b0 ea 9f 76 3c d3 6a 4b 3d ef 71 12 3d 9d d3 48 bd
       0.015052775 0.049662422 0.035753187 -0.049029935
0001c0 97 a3 c6 bb 93 cf 0c bd 13 0d 1b 3d 89 58 44 3c
       -0.006061982 -0.034377646 0.037854265 0.011983999
0001d0 45 cc 5d bc ec 60 bb bc d5 7e 08 bd 02 f5 4b bc
       -0.013537471 -0.022873364 -0.03332408 -0.012448551
0001e0 df 80 41 bd bd a8 03 bd f1 45 08 bd 0b 97 8d 3c
       -0.04724204 -0.032143343 -0.033269826 0.017283937
0001f0 46 54 2c 3d c4 8e 98 bb ca 40 2a 3d 87 2e 79 3c
       0.042072557 -0.004655691 0.041565694 0.015208847
000200 ac eb 01 00 ca 40 2a bd c8 52 01 80 15 59 51 3a
       1.76379e-40 -0.041565694 -1.21532e-40 0.00079859915
000210 04 54 ec 37 6c 1f 72 3b b9 3a 82 3a eb 34 cd ba
       2.8172515e-05 0.0036944998 0.0009935714 -0.001565603
000220 11 5d 01 39 7a af 0e 37 9c e9 55 b9 fd cf 3f 38
       0.00012337069 8.504716e-06 -0.00020400289 4.5731653e-05
000230 6d 0f 3b b9 e9 ad 4e 39 dc c2 78 b9 79 1a 45 b9
       -0.00017839456 0.00019710477 -0.00023723714 -0.00018797246
000240 1e f2 08 3b 1b 42 61 39 6f 8c a2 3b 5d b4 cc 38
       0.0020896266 0.00021482298 0.0049605886 9.761073e-05
000250 86 82 1b 3a 18 91 7d 39 b0 d3 30 39 64 d3 8e b8
       0.000593223 0.00024182012 0.00016863528 -6.810462e-05
000260 e5 2a 0b 3b f2 72 36 ba c6 fc a5 37 e9 c9 d8 38
       0.0021235284 -0.0006959877 1.978724e-05 0.00010337291
000270 29 7f b1 39 0f 6e a7 38 10 c3 a0 3a 64 30 3a 3b
       0.00033854813 7.9836806e-05 0.0012265164 0.002841019
000280 81 7e 61 ba 29 bb 00 80 64 30 3a bb 5d a4 00 80
       -0.00086019194 -6.714e-41 -0.002841019 -5.8962e-41
000290 2a e5 6f 3a 69 56 09 bb 2c 88 78 3b 16 a8 d6 39
       0.00091512746 -0.0020956045 0.0037922962 0.00040942495
0002a0 3b 04 6f ba 75 3b 30 3a 5d 44 85 3a 14 07 7c ba
       -0.0009117757 0.0006722727 0.0010167469 -0.0009614092
0002b0 44 45 53 3a 8a 73 e9 39 33 7b 0a 38 2f b9 e9 3a
       0.00080593326 0.00044527306 3.3016502e-05 0.0017831678
0002c0 fe e7 d9 ba 8d 26 42 3a c3 4f d6 ba 2e 00 83 3b
       -0.0016624925 0.0007406257 -0.0016350675 0.003997824
0002d0 05 68 3c 3a 93 fa 9b 3a e9 7e ce 3a c8 a3 fb b9
       0.0007187131 0.0011900238 0.0015754375 -0.00047996477
0002e0 e7 40 d2 39 49 4a 12 39 3e d4 65 b9 9c d3 6f ba
       0.00040102677 0.00013951318 -0.00021918208 -0.0009148659
0002f0 d6 cc 26 bb d3 84 3c 3a 1d f5 ad 3a 2e 29 b5 3a
       -0.0025451682 0.0007191423 0.0013271902 0.0013821477
000300 9e 01 57 3b 5d 6f 34 ba 97 40 01 00 9e 01 57 bb
       0.003280736 -0.00068830495 1.15006e-40 -0.003280736
000310 ab 92 01 80 30 c9 39 b9 d6 df 5c b9 67 d1 17 3b
       -1.4445e-40 -0.00017717923 -0.0002106422 0.0023165585
000320 50 71 67 38 a2 37 b1 b8 53 06 55 b9 65 a8 a3 39
       5.5180222e-05 -8.45038e-05 -0.00020315619 0.00031215246
000330 15 24 d2 39 79 4c ba 3a f9 d0 10 3a 17 28 f6 39
       0.00040081204 0.0014213464 0.00055243034 0.00046950646
000340 8d 0b 54 39 dc 3f b4 3a 88 2a 72 ba b9 0d c0 b8
       0.00020222199 0.0013751942 -0.0009237905 -9.1578295e-05
000350 21 b4 24 3b 17 65 41 3a 6a 04 f4 38 ad 3a d0 39
       0.002513178 0.0007377429 0.00011635649 0.00039716568
000360 b5 8e 30 39 cb f9 fc b8 15 7c 28 3a 6d 96 e4 b9
       0.0001683783 -0.00012062824 0.0006427181 -0.00043599625
000370 46 75 c2 39 6e 63 b5 b9 f6 07 74 39 89 6b 05 3a
       0.0003708994 -0.0003459709 0.00023272619 0.00050895714
000380 92 01 e8 3a f9 66 5a 3a 10 12 41 ba fa 3c 02 80
       0.0017700663 0.0008331384 -0.0007365057 -2.05545e-40
000390 f9 66 5a ba d9 91 00 00 54 d8 f6 39 bb 25 46 39
       -0.0008331384 5.232e-41 0.00047081953 0.00018896807
0003a0 51 2b 71 3c 3f 85 a2 3b 1b f8 27 bc 9e ef 9c bb
       0.0147198 0.004959732 -0.010252024 -0.004789307
0003b0 95 1d b8 bb 42 2a ae 3a 08 cb a4 3b 10 5e 6e ba
       -0.005618761 0.001328774 0.005029086 -0.0009092996
0003c0 95 ed 30 3b 3e 4a 19 3b fe cc 7e 3b 11 9e 8a 3b
       0.0026997079 0.00233902 0.003887951 0.0042302688
0003d0 8f d8 40 bb e8 a6 30 3c 72 e5 8d 3b ae 34 60 3b
       -0.0029425954 0.010781981 0.0043303305 0.0034211087
0003e0 2c 06 fb 3a 25 0f 86 3b 83 01 43 3c 2e 94 b1 ba
       0.001915162 0.004091161 0.011902216 -0.0013548189
0003f0 5e a3 62 bb 67 ff 81 bb 8b 38 b3 bb 9a 77 1f ba
       -0.0034582238 -0.003967214 -0.005469387 -0.00060831907

fcs1.bias f4 [400]
000000 28 83 ed bb f0 a5 f4 bc 45 1e 53 bd ce 40 2a bd
       -0.007248301 -0.029864281 -0.05154254 -0.04156571
000010 65 30 3a bb 9c 01 57 bb f7 66 5a ba 70 ff 32 bc
       -0.0028410193 -0.0032807356 -0.0008331383 -0.010925159
000020 fc 51 cf bc ba 2e b9 ba a0 3a 26 bd a2 11 7e bb
       -0.025307648 -0.0014128305 -0.040583253 -0.0038767834
000030 0a 2c 17 bc 73 60 18 bd dc 8f ed bb a9 87 81 bb
       -0.009226808 -0.037201356 -0.0072498154 -0.0039529395
000040 67 26 b9 bb f1 49 09 bc 77 14 fc ba a7 d1 ce bb
       -0.00565033 -0.008379445 -0.0019232173 -0.0063116136
000050 a4 0d 1e bb f3 5a c7 bb 97 ea a0 bb 09 5f e1 bb
       -0.0024117017 -0.00608384 -0.004910778 -0.006877784
000060 cd e4 a4 bc 19 8e 0b bc ac 6f cc bb 5e 81 0f bb
       -0.020128632 -0.008517765 -0.0062388983 -0.0021897177
000070 1b e4 12 bb d1 c1 2a ba d6 55 ab ba 6f 4d c0 ba
       -0.0022413793 -0.0006513866 -0.0013071846 -0.0014671515
000080 1f d2 58 bd 2a 66 29 bb ee 3d 0f bc 99 45 05 bc
       -0.052934762 -0.0025848248 -0.0087427925 -0.008134269
000090 83 2f 2c bc 5b 45 e4 bc 9d 7e 12 bc 19 76 3e bb
       -0.010509375 -0.027865103 -0.00894132 -0.002906209
0000a0 7e 1f 0a bc aa 7e a2 bb 1f 73 ec bc e2 0f b3 bb
       -0.00843036 -0.004958947 -0.028863488 -0.00546454
0000b0 8d 3e e9 3c c6 d5 88 3b dc ec 79 bb 4e 0f 53 bb
       0.02847221 0.0041758744 -0.0038135564 -0.0032205167
0000c0 8f 38 ac bb 62 ad 12 bc 0a 79 db bc af 82 2a bb
       -0.0052557657 -0.0089524705 -0.026791114 -0.0026017835
0000d0 71 39 87 bb de 8a 03 bb 43 bb 13 bc 38 a5 05 bb
       -0.0041267206 -0.0020071785 -0.009016815 -0.0020392668
0000e0 20 a4 45 bb a7 71 83 bb 52 ff cd bc 7c ff 84 bb
       -0.003015764 -0.004011351 -0.02514616 -0.0040587764
0000f0 33 b9 e3 ba d1 f9 d4 bc 3c db ac bb e5 a3 d6 bb
       -0.0017373919 -0.025998028 -0.005275158 -0.0065502995
000100 b1 38 7b bd 9b c1 3e bb 13 5c 91 bb 84 3b 2d bd
       -0.061333362 -0.0029107097 -0.004436025 -0.042293087
000110 a5 bb 99 bc 48 87 33 bb a6 bf 42 bb c6 25 ae bb
       -0.018766234 -0.0027393866 -0.0029716282 -0.0053145615
000120 8b 51 8f bd 8b 0d 07 bb 9f ea c7 3a 2b 27 b0 bc
       -0.06997975 -0.0020607437 0.0015252418 -0.021503052
000130 9b db 9d bc 77 14 19 bb 25 c4 1f bc de 32 ba bb
       -0.019269755 -0.0023358145 -0.009751354 -0.0056823334
000140 c8 94 66 bc 41 33 ca 3a 02 ba f7 bc ed 3e 11 3d
       -0.014073558 0.0015426652 -0.030240063 0.0354604
000150 20 58 34 bb f5 1b 00 bb 40 80 d1 ba 7a dc 86 bd
       -0.0027518347 -0.0019547914 -0.0015983656 -0.06585021
000160 9f de 7d bc 3c 4e 01 bc 56 0c 99 bd 72 ef 34 bc
       -0.015494972 -0.007892188 -0.07473056 -0.011043416
000170 10 f3 8c bd 43 3b 48 bb 90 7e 40 bd b5 9f 23 bd
       -0.06882298 -0.00305529 -0.0469957 -0.03994723
000180 52 86 f3 bb 24 33 08 bb 36 b8 90 bd 73 71 21 bc
       -0.0074317837 -0.0020782435 -0.070663854 -0.009853709
000190 97 c9 98 bc 00 57 06 bc 85 87 89 ba 8d 74 c7 bb
       -0.018650813 -0.008199453 -0.0010492658 -0.006086892
0001a0 e5 86 26 bb 41 df 7c bc b8 9b 25 bc c6 96 8b bb
       -0.0025409993 -0.015434087 -0.010107927 -0.004259917
0001b0 3b 8a 5e bd 5f eb 56 bb 71 eb 4b 3d 48 e3 66 bb
       -0.054331046 -0.00327941 0.04978508 -0.0035230685
0001c0 6b 63 a9 bb 95 70 96 bb 39 49 3d bb 6e 30 8c 3d
       -0.0051693222 -0.0045910575 -0.0028882755 0.06845175
0001d0 62 cb ed ba eb 74 c4 3c 64 a4 33 bc 0c 1e e2 bb
       -0.0018142278 0.023981532 -0.010964487 -0.0069005545
0001e0 57 d4 35 bc ed a5 18 bd 34 37 8a bb 48 bc 58 bb
       -0.011097989 -0.037267614 -0.0042180065 -0.0033071209
0001f0 61 c5 28 bb 65 47 fe bc 79 39 0d bc a0 50 11 3d
       -0.0025752413 -0.031039903 -0.00861966 0.03547728
000200 d3 a0 f3 bc 84 50 48 bd 8a 81 bb bd 1f df ff bc
       -0.029739773 -0.04890491 -0.09155567 -0.031234322
000210 08 98 02 bc 58 ec bc bb 17 ba a1 bb d1 23 77 bc
       -0.007970817 -0.005765479 -0.0049355137 -0.015084223
000220 f2 dd 02 bc 62 86 2f bd b4 c9 57 bc 35 70 11 bd
       -0.007987486 -0.042852767 -0.013170648 -0.0355074
000230 06 d2 fb bc 8f 96 03 3d 05 43 10 3c 09 8c 13 bc
       -0.030739795 0.032126006 0.008805041 -0.009005555
000240 a3 1c 8e bb 13 b1 c9 bb 16 53 87 bb e9 20 3a bc
       -0.00433691 -0.006155142 -0.0041297777 -0.011360385
000250 e9 5c 1d bd e5 b9 22 bb 04 0b 40 bb 58 84 13 bd
       -0.038418684 -0.002483004 -0.002930344 -0.036014885
000260 ec 7a 32 bc 30 6e 6d bb 7f a8 8b bb b5 b9 e7 ba
       -0.010893565 -0.0036229007 -0.0042620297 -0.0017679246
000270 44 92 37 bd 43 29 50 3d 95 d9 da ba 32 a1 71 bc
       -0.044817224 0.0508206 -0.0016696925 -0.014747905
000280 8c fa dd bb 59 18 d8 bb fa b2 28 bd a8 61 aa bb
       -0.0067742523 -0.0065946993 -0.04118631 -0.00519963
000290 25 b9 ba 3a 0a 72 a6 bc 00 09 18 bb c8 cf f2 bb
       0.0014245851 -0.02031805 -0.0023198724 -0.0074100234
0002a0 42 e8 92 bb 1f cb 51 bb 81 e3 62 bc c2 bb 24 bd
       -0.0044832537 -0.0032011939 -0.0138481865 -0.040218122
0002b0 32 88 11 3e 16 0b 72 bc 80 03 ea bb aa fe bc bb
       0.1421211 -0.014773151 -0.0071415305 -0.005767663
0002c0 90 44 cb bc 8b c1 1c bc 53 2c 4f bb c0 47 be bc
       -0.024812967 -0.009567629 -0.0031612113 -0.023227572
0002d0 a3 b0 2f bc 0e 9b 03 3d e1 a0 c6 ba 4f e0 85 bd
       -0.010723266 0.032130294 -0.0015154147 -0.06536924
0002e0 12 83 1f bc e8 30 04 3d 4c f1 72 bb f9 f2 d7 bb
       -0.009735839 0.032273203 -0.0037070094 -0.006590244
0002f0 7c 23 11 bc ac 9b 8f bb ca 9b 84 bb d1 25 41 bb
       -0.008858558 -0.004382571 -0.004046892 -0.0029472003
000300 b0 55 43 bb 3e 06 d0 bc 93 14 62 3b ef 67 a2 bb
       -0.0029805712 -0.025393602 0.0034497126 -0.0049562375
000310 6f 90 3b bd 8d 05 ac bc 11 bb 90 bb 98 3a c8 bb
       -0.04579204 -0.02099874 -0.0044168313 -0.0061105005
000320 df 38 c2 ba a6 fb dc 3c 20 e3 3a bc 66 dc bc bb
       -0.0014817974 0.026975464 -0.01140669 -0.005763578
000330 ee bd f0 3c 4e 70 bf 3a e3 55 07 bb 3c ee f6 bb
       0.02938744 0.0014605613 -0.0020650558 -0.007535724
000340 88 c2 69 bb ae 89 28 bd f4 bc 03 3d 64 dd 29 3a
       -0.0035668928 -0.041146927 0.03216262 0.0006479828
000350 dc 1d 01 bd ad e2 d3 bc ff 5d 17 bc 2b 4a 27 bc
       -0.031522617 -0.025864923 -0.009238719 -0.010210554
000360 8e a7 e7 bc 44 c5 16 3c 16 3e 28 bb d1 8e ee bb
       -0.028278138 0.009202305 -0.0025671772 -0.0072802086
000370 d1 ca 3f ba e9 93 e6 bb 94 ff 4a bd 03 57 cf bb
       -0.0007316294 -0.0070366752 -0.049560145 -0.0063275113
000380 4a 44 20 bb 5c 4e 36 bc 12 40 17 bb fa bf ae bb
       -0.0024454766 -0.011127081 -0.002307896 -0.005332944
000390 eb 21 1a 3d 2b 99 8d bb dd c9 6b bc be 4c a5 ba
       0.037630003 -0.0043212376 -0.01439139 -0.0012611372
0003a0 35 38 91 3c cf bf b8 bc 4c 57 49 bb 66 61 15 bc
       0.017726997 -0.022552399 -0.00307222 -0.00911746
0003b0 79 5b 1f bb a5 34 1a bc c1 50 f2 bb 3e 70 f8 bb
       -0.0024315997 -0.0094119655 -0.0073948805 -0.0075817397
0003c0 9b f7 33 bc b0 6c d6 bc d4 c2 c4 ba 07 1a b8 bc
       -0.010984327 -0.026174873 -0.0015011677 -0.022473348
0003d0 12 3b cd bb 0c 16 61 bb c6 ef 1c bb 34 38 0a bc
       -0.0062631452 -0.0034345416 -0.0023946627 -0.008436251
0003e0 68 91 84 bb f8 a5 35 bb 94 8c 93 bb f7 9e 0e bc
       -0.004045654 -0.0027717333 -0.004502842 -0.008704892
0003f0 8c 8e 24 bb 6f e1 dd bc 26 79 a6 bc 6a cf 5d bc
       -0.0025109379 -0.027085034 -0.02032144 -0.013538221

fc2.weight f4 [300, 404]
000000 7e fd a1 05 3f 8d 3a 8b 92 4e c9 89 45 7a 38 8b
       1.5233486e-35 -3.592856e-32 -4.8462877e-33 -3.5529096e-32
000010 b5 90 cc 08 98 d4 06 00 80 58 0b 00 12 1a ec 88
       1.2311824e-33 6.27277e-40 1.041938e-39 -1.4209862e-33
000020 14 cd 51 0b 19 46 06 00 a3 ef 01 0b 1c de d1 08
       4.040622e-32 5.76159e-40 2.502478e-32 1.2630948e-33
000030 4a 2d 22 00 80 30 08 0b a8 50 47 8c 14 1d 8c 88
       3.138654e-39 2.6229135e-32 -1.5354674e-31 -8.43278e-34
000040 4a b4 9a 88 a3 b4 18 00 fa 0b 32 00 ba 8f 11 05
       -9.310924e-34 2.268852e-39 4.596071e-39 6.8442656e-36
000050 7b 70 bf 80 75 8c 0e 80 2e cd 21 88 56 36 d9 89
       -1.758093e-38 -1.336083e-39 -4.8690363e-34 -5.2291947e-33
000060 ed 92 a7 8c 10 49 1d 00 48 70 d3 84 e7 82 05 00
       -2.5818852e-31 2.689439e-39 -4.9708976e-36 5.06136e-40
000070 ac c3 63 06 a9 52 10 8d 1b 85 0c 00 22 87 06 00
       4.2837712e-35 -4.4472924e-31 1.149775e-39 5.9949e-40
000080 91 79 cc 0b 92 0a 1f 0a 56 7b ee 88 c8 e5 d4 05
       7.8760855e-32 7.6575596e-33 -1.43531e-33 2.0020792e-35
000090 76 5b 07 00 69 9f 0a 8b 09 dd 7d 86 32 4e 04 80
       6.75658e-40 -2.669776e-32 -4.7746402e-35 -3.95393e-40
0000a0 aa 6e 3f 07 25 9f e3 8a cd a6 c7 89 e2 4f 04 09
       1.4401764e-34 -2.1919168e-32 -4.8064366e-33 1.5926483e-33
0000b0 47 ea 34 0c fa cd d2 8b f0 84 16 00 d8 e8 17 88
       1.3937196e-31 -8.1198977e-32 2.06807e-39 -4.5713616e-34
0000c0 ba 02 b7 0b 54 f3 3a 0d b3 13 2b 0a 37 91 02 80
       7.049314e-32 5.760857e-31 8.2370555e-33 -2.35764e-40
0000d0 b7 57 cd 85 58 ad 25 80 5c 17 fa 86 9f db a8 8b
       -1.9310329e-35 -3.460097e-39 -9.407387e-35 -6.5041695e-32
0000e0 4b 7f 8a 89 ad 1c c8 8a 25 70 18 07 15 c9 90 83
       -3.3341997e-33 -1.9270086e-32 1.1468165e-34 -8.5097255e-37
0000f0 82 37 02 08 9b d8 dc 09 37 87 30 0c 10 5a 0f 80
       3.91857e-34 5.316677e-33 1.3599237e-31 -1.409841e-39
000100 7a de 37 8c 9e 2a 64 00 15 39 d1 08 08 fe c2 8a
       -1.4164756e-31 9.198838e-39 1.259215e-33 -1.8777076e-32
000110 f5 07 d5 8a cf a2 06 8a 5e f1 c3 07 cc 5c 32 80
       -2.0514147e-32 -6.482486e-33 2.9482202e-34 -4.625064e-39
000120 ec 38 e1 8a 5f 75 05 00 c3 4e eb 0b f3 fe 0e 8d
       -2.1688124e-32 5.01282e-40 9.0637215e-32 -4.406401e-31
000130 62 21 68 0c 6d c0 05 80 d5 a4 22 8c 79 86 1c 88
       1.7882676e-31 -5.28207e-40 -1.2529628e-31 -4.7102614e-34
000140 30 1f 0a 00 fa a3 0a 8a 17 c0 4a 8c f8 34 55 8d
       9.29543e-40 -6.675299e-33 -1.5619319e-31 -6.569945e-31
000150 8a d0 0d 00 85 d1 0b 80 b8 88 15 06 6f b8 55 8b
       1.268671e-39 -1.085352e-39 2.812423e-35 -4.116106e-32
000160 a5 69 94 89 a0 ac 18 80 9c cb 29 0c a0 c7 2b 8a
       -3.572905e-33 -2.265978e-39 1.3080558e-31 -8.270896e-33
000170 57 c0 cc 8b 52 3b 5b 8a e8 b0 08 0c d2 61 f5 09
       -7.886734e-32 -1.0555623e-32 1.0530295e-31 5.9073594e-33
000180 99 bc f0 8a 39 c2 03 80 0d 72 bb 8b d4 fb 2a 88
       -2.3182102e-32 -3.4518e-40 -7.2201384e-32 -5.1453537e-34
000190 37 59 29 0b 39 7b c1 06 0c 35 ab 0a 69 d6 00 00
       3.2615334e-32 7.277959e-35 1.6486655e-32 7.6916e-41
0001a0 bf ef 98 80 da 52 1b 8b a8 0a d2 0b 66 a2 81 08
       -1.4045e-38 -2.9914245e-32 8.090509e-32 7.802085e-34
0001b0 23 00 19 0c d6 71 0e 06 a1 97 5b ad 45 8b f0 0c
       1.1786732e-31 2.6790865e-35 -1.2482377e-11 3.7061675e-31
0001c0 48 3f 0b 80 43 38 07 00 ac 1f 02 00 75 ab 7b 0c
       -1.032891e-39 6.63031e-40 1.95033e-40 1.9387933e-31
0001d0 75 93 08 07 70 70 01 8d 0e c1 25 80 fb f2 c4 08
       1.0274837e-34 -3.9886536e-31 -3.467168e-39 1.1853445e-33
0001e0 39 e6 07 80 2d 4a d7 09 d0 7b 40 80 0c 96 ba 8a
       -7.25437e-40 5.182912e-33 -5.921887e-39 -1.796759e-32
0001f0 f4 9d 63 89 d8 aa 21 0c 9a 34 3a 08 a6 20 ab 8a
       -2.73984e-33 1.24544e-31 5.603417e-34 -1.6478982e-32
000200 5b 9f 5a 0c 05 f3 16 0b 99 c0 3b 09 cf 47 58 80
       1.6842063e-31 2.9071777e-32 2.2599865e-33 -8.107284e-39
000210 b4 17 43 0b d7 25 f5 89 6a 0e 2c 86 dc bf 06 8c
       3.7573466e-32 -5.901719e-33 -3.2360194e-35 -1.038072e-31
000220 75 6a 16 80 87 b1 b1 0b d7 9f 0b 00 57 87 70 09
       -2.05857e-39 6.8445033e-32 1.06753e-39 2.8952586e-33
000230 a5 81 91 8c 37 25 a4 8f 26 d5 44 8c ea 69 d4 88
       -2.2418814e-31 -1.6185983e-29 -1.5163433e-31 -1.2784186e-33
000240 d2 ce 0a 00 8f c6 d0 06 fd d7 ea 87 2a 4d 9a 0b
       9.92548e-40 7.853266e-35 -3.5335353e-34 5.9434746e-32
000250 4b 3b 93 0a d1 db 11 80 19 0d 33 00 1e 17 75 0b
       1.4177889e-32 -1.640059e-39 4.688309e-39 4.7202675e-32
000260 b5 65 0e 80 18 5b 8e 06 e5 c0 10 80 10 9c 82 87
       -1.322183e-39 5.3548314e-35 -1.538565e-39 -1.9651951e-34
000270 a3 11 8e 09 8d 12 84 17 78 0d 4e 87 06 d2 0a 0c
       3.4201842e-33 8.534983e-25 -1.5501676e-34 1.0694335e-31
000280 a1 b7 51 85 73 a2 96 82 9f d5 0d 89 20 be 01 00
       -9.86086e-36 -2.213376e-37 -1.7072702e-33 1.6004e-40
000290 b0 74 85 8b 1f 87 b1 0b c9 da 05 80 2a 3b 10 06
       -5.140531e-32 6.838123e-32 -5.37663e-40 2.7126857e-35
0002a0 63 81 14 00 91 0a 08 80 e6 6c 08 8a 9c d5 ea 09
       1.883125e-39 -7.38474e-40 -6.568643e-33 5.653433e-33
0002b0 14 a1 02 90 36 ac f0 0c f0 09 08 87 28 71 04 00
       -2.576207e-29 3.70815e-31 -1.0234423e-34 4.07935e-40
0002c0 f0 12 ac 8a ea dc 07 80 01 b5 5d 07 fd b7 02 8c
       -1.6570121e-32 -7.22098e-40 1.6679384e-34 -1.0070203e-31
0002d0 35 f3 15 8a b3 d5 3a 0c 87 d4 34 88 13 3d 92 8c
       -7.219831e-33 1.4393227e-31 -5.4416604e-34 -2.253162e-31
0002e0 76 73 40 88 f4 b9 bc 0d a5 86 6e 88 50 ec 94 08
       -5.791362e-34 1.1631161e-30 -7.1778794e-34 8.962983e-34
0002f0 53 c7 76 05 92 86 e5 06 15 e7 be 86 4b 8f 25 80
       1.16034745e-35 8.633796e-35 -7.18096e-35 -3.449317e-39
000300 36 fc 34 09 b5 ee 1c 0b 59 b7 02 8c ba f7 13 87
       2.17853e-33 3.022409e-32 -1.007001e-31 -1.1131851e-34
000310 b8 5a 82 08 e4 30 65 0c c6 dd 05 00 07 77 95 84
       7.845418e-34 1.7656231e-31 5.38735e-40 -3.513904e-36
000320 d5 32 20 88 a9 29 28 8d db 2d b2 8a 67 f6 b0 09
       -4.8208e-34 -5.1819143e-31 -1.7158025e-32 4.2602174e-33
000330 27 0b 9e 0a 47 02 6c 0b 5f 88 0b 00 ef e6 59 86
       1.5219042e-32 4.545366e-32 1.059111e-39 -4.0982827e-35
000340 92 82 31 00 cc 57 b1 8b 01 d4 a2 08 8b 79 57 89
       4.546779e-39 -6.831002e-32 9.799862e-34 -2.5936833e-33
000350 ee f2 b8 8a df d7 15 0b 78 12 87 88 f4 e5 08 80
       -1.7809935e-32 2.885876e-32 -8.129359e-34 -8.17176e-40
000360 2a 09 e5 8a 13 3a dd 0c 09 a0 17 83 0b 48 02 07
       -2.2055345e-32 3.4085394e-31 -4.4558623e-37 9.801285e-35
000370 09 07 8b 87 d0 7a 6a 05 d1 e2 84 0c ce 37 1e 08
       -2.091853e-34 1.1025184e-35 2.047433e-31 4.7611994e-34
000380 ef 69 f8 88 48 c8 0a 89 5f 44 86 06 d1 5f 04 00
       -1.4950862e-33 -1.6705318e-33 5.050566e-35 4.01714e-40
000390 0c 91 f5 0c ba d3 ee 87 46 38 49 86 e5 61 f4 89
       3.7835524e-31 -3.5934702e-34 -3.7845242e-35 -5.8832923e-33
0003a0 a0 8f 19 0d 8a 22 8d 88 31 0c 03 00 8e ea ff 88
       4.7319647e-31 -8.494249e-34 2.7988e-40 -1.5402398e-33
0003b0 bc 0a 81 05 9d b3 9a 0c 4b 79 26 80 0c be 34 0c
       1.2135045e-35 2.3835558e-31 -3.53326e-39 1.3923886e-31
0003c0 82 cd 10 80 cf 54 06 8c cf a1 d2 86 61 aa 2d 8c
       -1.54309e-39 -1.0348506e-31 -7.9230977e-35 -1.3378707e-31
0003d0 a0 00 0a 00 20 6b 00 80 18 17 85 05 58 97 0c 00
       9.18579e-40 -3.8429e-41 1.2515743e-35 1.156318e-39
0003e0 61 5f b1 03 91 47 e1 07 ac 32 2f 88 bd a0 a3 08
       1.0425023e-36 3.38963e-34 -5.272171e-34 9.847995e-34
0003f0 a3 38 3a 06 3e e0 ff 07 d5 e4 b3 8a 82 77 d0 88
       3.5024322e-35 3.8499933e-34 -1.732315e-32 -1.2546641e-33

fc2.bias f4 [300]
000000 db de 62 9e 4e 3c c2 b1 1c 45 10 96 f8 a2 b0 b7
       -1.2010426e-20 -5.652999e-09 -1.1654034e-25 -2.1056723e-05
000010 10 f6 20 aa b9 a0 6f b6 e6 c9 08 9f c3 53 fa b1
       -1.4296225e-13 -3.5707328e-06 -2.8966127e-20 -7.28548e-09
000020 d8 bb 32 b8 0c cb 54 3e 91 ee e4 a3 0a 3a 42 3e
       -4.261345e-05 0.20780581 -2.4820846e-17 0.18967453
000030 aa b6 a3 a1 ac 9f 4e b9 cc e7 50 ba a2 08 6a a1
       -1.109366e-18 -0.00019705173 -0.0007969111 -7.929371e-19
000040 3e bb 09 bb d8 e7 9e bd e0 6d 51 ba cd 08 31 b7
       -0.0021016146 -0.077590644 -0.000798909 -1.0552071e-05
000050 93 b1 f2 b4 fb d4 3b b7 b1 a5 4a b0 12 a5 60 9f
       -4.5205215e-07 -1.1195657e-05 -7.3722634e-10 -4.7570388e-20
000060 dc 73 9b a6 01 fd d2 ae 44 13 9f ac 2d b4 32 ab
       -1.0786689e-15 -9.594637e-11 -4.5211907e-12 -6.348835e-13
000070 ac f3 b9 9a d4 0e 4b b4 99 0a ec b8 4f 7e bf af
       -7.690788e-23 -1.8911243e-07 -0.00011255331 -3.4832445e-10
000080 e2 02 eb b4 28 30 b9 b5 4d 6c 38 b2 9e 6a 4e ba
       -4.3774259e-07 -1.3797589e-06 -1.0734834e-08 -0.00078741636
000090 67 2e ab b8 94 9d 68 3d 0b cd 9d b8 b3 b7 fa b4
       -8.1625585e-05 0.056790903 -7.5245356e-05 -4.6699788e-07
0000a0 50 22 8b ae fa 71 5c 97 ab dd 6c ba 74 ad 0b b8
       -6.327083e-11 -7.1229693e-25 -0.00090357166 -3.3301723e-05
0000b0 a6 1b 0d 3d 8a dd a6 bb 05 e4 3b 9a d4 8f 2d bb
       0.034450196 -0.0050923275 -3.8854886e-23 -0.0026483433
0000c0 3d 92 30 ad 2a 91 19 ba 63 00 3f b9 e3 44 89 3d
       -1.0036913e-11 -0.0005858118 -0.00018215324 0.06702592
0000d0 52 4b 82 bb ac 80 70 b8 ac 37 7f 9a 03 fb 4d b4
       -0.003976264 -5.7340294e-05 -5.2777735e-23 -1.918343e-07
0000e0 52 d7 bc b2 86 5f 79 b0 6f 4f 8e ab 20 ba 82 bb
       -2.1983997e-08 -9.072142e-10 -1.0111754e-12 -0.003989473
0000f0 05 4d 21 b8 88 28 28 3e 4a 49 13 b7 e6 5f a4 ab
       -3.845712e-05 0.16421711 -8.778947e-06 -1.1679518e-12
000100 74 63 69 b0 5a 69 df b6 ac 67 35 b0 9c cd fe ba
       -8.490624e-10 -6.6581824e-06 -6.5994743e-10 -0.0019439938
000110 66 f6 00 b7 a3 c6 df 92 b3 e3 f3 9f 40 6c 08 b1
       -7.686764e-06 -1.4122246e-27 -1.032912e-19 -1.9852138e-09
000120 62 a3 15 bb 92 ba ed b9 03 a6 b7 a7 87 64 b7 b9
       -0.002283298 -0.00045343168 -5.0972694e-15 -0.0003497938
000130 71 ad f1 ba 69 98 90 b3 b5 ec 8d b0 ed c3 7b 3d
       -0.001843853 -6.733246e-08 -1.0326376e-09 0.061466146
000140 d1 6a 76 9b ef 2c 4d a0 67 68 49 ac 9d b6 17 a8
       -2.0383157e-22 -1.7379043e-19 -2.8621773e-12 -8.421782e-15
000150 aa 87 cb b0 f7 91 40 aa d6 c9 12 af 05 3c 94 b4
       -1.4808752e-09 -1.7103667e-13 -1.3350329e-10 -2.7610818e-07
000160 d5 e6 a8 b7 5f 32 2d bb fa 20 02 b8 4f c3 af ad
       -2.013465e-05 -0.0026427729 -3.1025127e-05 -1.9981931e-11
000170 8d ea 5c b0 3d c9 f3 b8 b0 5c da 9c cc 67 26 bb
       -8.036885e-10 -0.000116246265 -1.4449989e-21 -0.0025391458
000180 c4 bb cf ac f0 65 5e 9e 45 58 8e b7 e7 35 42 b7
       -5.90414e-12 -1.1773662e-20 -1.6968823e-05 -1.1575851e-05
000190 02 74 a5 90 f8 0a 97 bb e2 ef 82 b7 59 4f a9 3e
       -6.5259763e-29 -0.004609462 -1.5608912e-05 0.3306835
0001a0 b1 78 60 a8 69 36 f3 ab b5 c2 4f b9 93 d8 cc ac
       -1.2460669e-14 -1.728129e-12 -0.00019813592 -5.8220733e-12
0001b0 55 4a a8 b6 7f 6a ab b9 3c 00 4d b5 5f f8 e8 b9
       -5.0154435e-06 -0.00032695007 -7.636879e-07 -0.0004443554
0001c0 18 89 8c bb a7 44 82 b7 dd 18 68 b8 ed 5f 82 ab
       -0.004288804 -1.5529176e-05 -5.5336266e-05 -9.26368e-13
0001d0 2a 7d 89 ae bf 1e 21 b9 0b a0 b7 99 88 4d 1c b7
       -6.252272e-11 -0.0001536561 -1.8986397e-23 -9.316376e-06
0001e0 da 71 2b 3e 1b 2c 1c b0 81 d9 b6 b8 de df d1 b8
       0.1674265 -5.6815147e-10 -8.7189495e-05 -0.00010007595
0001f0 ad 2e 51 b4 f9 28 b2 b6 67 7a bf b9 69 42 56 af
       -1.9481622e-07 -5.3095832e-06 -0.00036521556 -1.948678e-10
000200 eb 4e 2e a0 16 ad 01 a0 94 fe 76 ac bc a7 3e a2
       -1.4764485e-19 -1.0983994e-19 -3.5100022e-12 -2.58386e-18
000210 0f 67 1d b1 31 55 b8 b1 16 5c d3 b5 e8 1e 1d 96
       -2.290509e-09 -5.36479e-09 -1.5747526e-06 -1.2692111e-25
000220 2b e7 25 aa b1 eb 03 b3 57 a9 37 ad 97 a5 f7 34
       -1.4735146e-13 -3.0715174e-08 -1.0439947e-11 4.6127818e-07
000230 e7 30 19 a9 c6 3c 8a a1 22 7c d6 ba 13 cd ea 97
       -3.401524e-14 -9.36733e-19 -0.0016363899 -1.5173664e-24
000240 d8 a8 c7 b9 ac aa 98 ac c1 7e 4b b7 d2 9c 64 b6
       -0.00038082036 -4.3390482e-12 -1.2129255e-05 -3.406593e-06
000250 cb f9 f7 b7 63 85 12 a9 e4 06 2d b2 40 97 15 b9
       -2.9561013e-05 -3.2534207e-14 -1.0071492e-08 -0.00014266092
000260 29 cb c8 bb 37 51 41 ba a3 71 f1 ad 4e 0a 63 ad
       -0.006127734 -0.00073744677 -2.7448993e-11 -1.2905744e-11
000270 9b af d1 ba 5e bd c3 bd ea 03 2f ba ee 3c c4 bb
       -0.0015997769 -0.09557603 -0.00066763035 -0.0059887087
000280 2c 62 45 a6 19 24 4f af 36 a6 ac b8 b7 8c e3 ae
       -6.8481153e-16 -1.8839365e-10 -8.232558e-05 -1.0347761e-10
000290 ad e2 45 b1 34 85 50 a6 d3 e3 5a ba 55 1a 03 91
       -2.8796123e-09 -7.234502e-16 -0.00083499885 -1.0342192e-28
0002a0 7e 1b 08 b9 1b d3 81 97 18 22 09 a1 0b 8a 33 b7
       -0.00012980212 -8.38972e-25 -4.646253e-19 -1.0701372e-05
0002b0 ac 82 c5 b7 4f b4 04 98 66 9f 72 b8 ff c1 50 b6
       -2.3545079e-05 -1.7151633e-24 -5.7845748e-05 -3.1107336e-06
0002c0 ab 29 47 9f 7f 3e 93 b4 4b 29 a6 b6 da f5 ff 9f
       -4.2174356e-20 -2.7426356e-07 -4.9519927e-06 -1.0840343e-19
0002d0 43 1c 5a 3d ff 3d 7b ba fd 54 cf b5 7d d9 ab b9
       0.05324961 -0.0009584128 -1.5447437e-06 -0.00032777703
0002e0 b8 fa 3c ba a5 c4 16 ba 7b 5e 98 b6 e5 92 19 9b
       -0.0007208991 -0.0005751348 -4.540952e-06 -1.2703328e-22
0002f0 9f 53 e3 bb 33 6c 3e b5 3d bc 1b b5 23 eb dd b4
       -0.0069374586 -7.0937966e-07 -5.801592e-07 -4.1335542e-07
000300 a4 7e 3b b9 44 42 8b bb 79 2c 57 a2 7c ae 95 a0
       -0.00017880887 -0.004249843 -2.9161477e-18 -2.5357046e-19
000310 43 74 89 ba 1d e3 af b6 8f 00 04 b2 bb a0 fd b7
       -0.0010486919 -5.241846e-06 -7.683538e-09 -3.0234796e-05
000320 f8 9b c8 b9 aa 17 86 a1 08 65 34 ac 2d b8 17 b1
       -0.00038263178 -9.086457e-19 -2.5635622e-12 -2.2078084e-09
000330 8a c3 fd a8 1a e8 81 ba ca 7d d9 b5 9e f0 29 ba
       -2.8173444e-14 -0.0009911091 -1.6204369e-06 -0.0006482693
000340 13 7a 5f 1e 5e 65 5f ab e5 01 70 b5 1b 97 a0 a4
       1.1830766e-20 -7.936619e-13 -8.9409724e-07 -6.964492e-17
000350 c2 88 b5 af 3c 38 31 9b e9 bb da 90 9b b1 ca a0
       -3.302088e-10 -1.4659267e-22 -8.627536e-29 -3.433766e-19
000360 67 fa b1 b6 c3 ac 25 ae 01 f1 f2 99 eb 1f 65 91
       -5.3041617e-06 -3.76701e-11 -2.5119554e-23 -1.807475e-28
000370 47 67 2c bb 4b fd b2 b7 62 73 80 b6 b2 0e e1 8a
       -0.0026306675 -2.1337202e-05 -3.8281296e-06 -2.167224e-32
000380 70 a6 1b b9 9e 12 a6 b4 5c 82 8d b8 a4 8c c4 9d
       -0.00014843955 -3.0933455e-07 -6.747685e-05 -5.2026187e-21
000390 1d a3 40 b7 e5 b4 ed ac c0 d3 a2 b8 df 24 3f a3
       -1.148207e-05 -6.7560285e-12 -7.7642035e-05 -1.03619385e-17
0003a0 d4 cf a8 a8 6b 18 2b af f1 7d 0b af 7e 90 64 ba
       -1.8741878e-14 -1.5561034e-10 -1.268672e-10 -0.0008719041
0003b0 32 4b 08 b9 56 12 7e a4 7b 77 e2 a6 48 db 60 a6
       -0.00012997983 -5.5093e-17 -1.5714285e-15 -7.8012793e-16
0003c0 3e 8a 21 ba 0e 3e 11 98 bb 15 8a a4 47 06 be a1
       -0.0006162262 -1.877214e-24 -5.988477e-17 -1.2876562e-18
0003d0 94 58 49 b1 d5 3a a9 3e 09 f3 20 3e 1a cc 50 b6
       -2.92997e-09 0.33052698 0.1571771 -3.1113218e-06
0003e0 8c 40 a9 b9 f5 b8 87 bb 84 f5 d3 b9 92 82 ad 3d
       -0.00032282283 -0.0041419216 -0.0004042798 0.0847217
0003f0 ec ab fd b2 ab 88 16 aa 5a 45 ea ba 1d 4a b0 b5
       -2.9531257e-08 -1.3370093e-13 -0.0017873452 -1.3134592e-06

fc3.weight f4 [1, 300]
000000 58 ed 05 b8 8c fc d6 b8 ee bf 81 35 5d 04 a8 b9
       -3.1930715e-05 -0.00010251356 9.667108e-07 -0.00032046708
000010 69 89 92 39 c2 4e a4 3a c4 4a 0e 37 de 94 b1 b9
       0.0002794967 0.0012535679 8.481267e-06 -0.00033870985
000020 0c 96 2f b7 5c de 93 3f a8 d0 a9 b7 96 92 0a 3f
       -1.0465748e-05 1.1552234 -2.0243533e-05 0.5412992
000030 86 8b 8c b7 f4 34 87 bb 77 72 89 3b 07 3f 0a b9
       -1.6754271e-05 -0.0041261856 0.0041945535 -0.00013184185
000040 a7 aa 8e ba 17 03 b2 be 37 c7 9b 3a 51 07 2b 3b
       -0.0010884599 -0.34767982 0.0011884932 0.002609689
000050 ae 1f 47 bb 9c 87 d5 b8 2d 28 0a b9 d0 62 3e b9
       -0.0030383873 -0.00010181891 -0.00013175672 -0.00018156623
000060 a7 7b d2 b8 ba a4 36 3a 42 ac 4e ba 51 f1 b8 39
       -0.000100366124 0.0006967295 -0.0007883945 0.0003527501
000070 ae fb 97 b9 84 9a ec b8 56 8c b2 b6 46 5c a2 ba
       -0.0002898848 -0.00011282138 -5.3211506e-06 -0.0012387119
000080 83 2d d0 b9 13 2a 40 3b 09 5c 7c ba 72 ea a6 3a
       -0.0003970676 0.0029321953 -0.00096267514 0.0012734665
000090 4b 0a fe 3a b5 e9 ec 3e 34 e6 10 b9 12 8f 82 39
       0.001938173 0.46272054 -0.00013818668 0.00024902128
0000a0 96 19 28 b9 84 ed fd b5 d2 0e 1d 39 25 20 d3 3a
       -0.0001603126 -1.8919095e-06 0.00014978208 0.0016107602
0000b0 21 61 61 3e 41 6a e7 b8 fd 15 7d b9 95 21 08 3b
       0.22009708 -0.0001103473 -0.00024136151 0.002077197
0000c0 dc 54 76 ba 6c a6 19 bb 2d f8 8a b8 f1 0c 11 3f
       -0.00093968003 -0.0023445142 -6.626579e-05 0.5666037
0000d0 76 02 12 3a 4f 43 2b bb 49 c6 bd 36 5c a5 49 b9
       0.0005569825 -0.0026132648 5.6557224e-06 -0.00019230455
0000e0 29 f2 e8 38 f2 10 c5 38 39 74 de b7 b7 a2 57 38
       0.00011107728 9.396848e-05 -2.6518583e-05 5.1411535e-05
0000f0 bf 1e 17 bb f5 85 5a 3f d9 13 d0 ba 2a b0 35 39
       -0.0023059098 0.8536065 -0.0015875056 0.00017327131
000100 c6 ea 16 3a 14 74 50 bb 8d 47 f7 b9 f0 41 02 3b
       0.000575703 -0.003180747 -0.0004716482 0.0019875728
000110 e7 a9 ac 3a b3 bd d1 b6 b7 27 72 b8 f4 4b 1f ba
       0.0013173193 -6.2507693e-06 -5.7734283e-05 -0.00060766865
000120 5a d9 90 39 e9 a1 00 3b de e6 6f 3a 0f 17 96 3a
       0.0002762776 0.0019627756 0.00091515284 0.0011450964
000130 cd ee 86 39 be 03 8b b9 86 e1 9b b9 0c 81 c0 3e
       0.00025736392 -0.00026514934 -0.00029731932 0.37598455
000140 b3 9a c4 38 8f 9f f0 b9 80 43 85 b9 53 e6 06 3a
       9.374823e-05 -0.00045895248 -0.00025418028 0.00051460153
000150 4f e7 b9 39 f4 ff 30 39 8f a5 ab b9 5a bd 9a 37
       0.00035458288 0.00016880018 -0.00032739012 1.8446404e-05
000160 a0 10 20 ba 62 db d1 3a 2e 1b 9c ba 4f 6a 46 37
       -0.0006105993 0.0016010816 -0.0011909956 1.1826472e-05
000170 72 b6 0e 3b ab 16 d8 b8 fd 99 04 37 5c 6d f6 3a
       0.0021776226 -0.00010303905 7.903666e-06 0.0018800902
000180 61 89 f8 b8 80 64 2e 37 30 44 07 b9 e6 90 8c 39
       -0.0001185115 1.0394608e-05 -0.00012900005 0.0002681084
000190 51 9f f9 b4 c3 40 ad ba e8 35 04 3b 1a 4b c3 3e
       -4.6495782e-07 -0.0013218153 0.0020173732 0.38143235
0001a0 97 0f f3 b7 f4 52 40 39 3e 9d 80 38 73 98 20 b9
       -2.8975117e-05 0.0001834145 6.132804e-05 -0.00015315581
0001b0 06 d3 f9 3a 3a 60 73 3b 2b fa 72 ba 20 34 cf b9
       0.0019060082 0.0037136213 -0.00092688453 -0.00039520953
0001c0 2f 2c 4a 3b fb a1 07 ba b2 1b 75 38 54 3e a3 b9
       0.003084909 -0.0005173978 5.8438345e-05 -0.0003113622
0001d0 86 75 85 ba 78 75 fd b9 6c f0 a2 b8 d9 1b 83 b7
       -0.001018212 -0.0004834344 -7.769544e-05 -1.5629385e-05
0001e0 75 5b 34 3f d7 f5 41 38 ac 74 f5 ba 65 a0 9c ba
       0.7045205 4.6243742e-05 -0.0018726788 -0.0011949657
0001f0 23 40 1d 3a c1 0e 86 b8 4f f8 08 bb 00 76 84 ba
       0.0005998632 -6.392366e-05 -0.0020899957 -0.0010105968
000200 8a 32 11 b9 b1 9e f2 b8 e6 e7 19 3a 0f 19 81 b8
       -0.00013847105 -0.00011569018 0.00058710424 -6.155867e-05
000210 64 24 cc 3a ae eb 5b 3a 56 a4 df 34 7f 86 6d 37
       0.001557481 0.0008389306 4.1656557e-07 1.4157616e-05
000220 cd 67 34 b8 d8 43 93 39 a1 3b 0e 39 35 54 55 35
       -4.3012016e-05 0.00028088572 0.00013564389 7.947122e-07
000230 c5 f4 73 39 ae 70 b3 38 e2 77 9e bb d7 d4 c9 37
       0.0002326547 8.556373e-05 -0.0048360685 2.4060178e-05
000240 c8 15 85 b9 6f da 23 b9 27 f2 90 b9 58 9c c0 b7
       -0.00025383965 -0.00015626264 -0.00027646238 -2.2960987e-05
000250 64 c7 3f 38 80 89 2b b9 4f df 59 39 dd e7 d9 b9
       4.5723646e-05 -0.00016359054 0.00020777922 -0.00041562217
000260 fc b4 1f 3b 66 48 9c 39 4a 6e 3e bb 57 50 90 b7
       0.002436935 0.0002980858 -0.0029057437 -1.7203549e-05
000270 98 d6 bf b9 0e ff 04 bf ca 7f 2d ba 46 a9 17 3b
       -0.00036590244 -0.5195168 -0.00066184683 0.0023141666
000280 9b eb 4d b4 8d 6f 1f b8 c5 cc 45 b9 f8 f0 7e 39
       -1.9177826e-07 -3.8012444e-05 -0.00018863667 0.00024313095
000290 a0 1a 52 3a f1 55 06 b6 c5 e4 2b bb b2 57 b0 39
       0.00080148317 -2.001758e-06 -0.0026228887 0.00033634674
0002a0 5f 19 d1 b6 eb 0c 89 b5 42 d4 0f b7 c0 95 78 b7
       -6.231639e-06 -1.0211055e-06 -8.572884e-06 -1.4816818e-05
0002b0 cd 56 36 3b a3 e7 51 b8 65 07 bb ba 99 b2 d3 39
       0.0027822733 -5.004521e-05 -0.0014269172 0.00040378122
0002c0 d3 f6 1d 39 79 26 9b ba 15 ea 7d 3a ee 9b d2 b9
       0.00015064636 -0.0011837027 0.0009686065 -0.00040170498
0002d0 ad 27 bd 3e c7 d0 75 ba e9 bc 4c 36 9f 84 15 3b
       0.36944333 -0.00093771185 3.050833e-06 0.0022814644
0002e0 ed b1 e4 b9 f9 94 9a 3b 59 8a f1 ba 15 5b 67 33
       -0.00043620114 0.004717466 -0.0018428072 5.3866717e-08
0002f0 13 7e 02 3b 02 78 6d 3a c7 5a 92 b1 0b 64 67 37
       0.0019911572 0.0009058715 -4.2594794e-09 1.3791966e-05
000300 2d 9e 4b 38 f4 2a 76 ba 67 30 09 b9 d1 7a 3a b8
       4.8546284e-05 -0.0009390556 -0.0001308337 -4.4460237e-05
000310 0b 84 2a bb c7 83 b9 3a cd 62 b5 35 0e b9 b3 b6
       -0.0026018645 0.0014153653 1.3514306e-06 -5.356159e-06
000320 dc 3c 3b b8 6f 11 87 b9 06 0d 4d 39 17 45 24 39
       -4.4640954e-05 -0.00025762196 0.00019555175 0.00015665997
000330 f7 f2 01 b7 81 0f e8 b9 5a fa 0b bb 9f 64 9a ba
       -7.745569e-06 -0.0004426204 -0.0021358938 -0.0011779255
000340 fa fa 86 ba 0c 86 ec 37 85 3a 00 39 27 9b c4 38
       -0.0010298186 2.8195813e-05 0.00012228831 9.374908e-05
000350 8b d8 3a 39 0a 2c 56 39 ec 64 ec 36 21 5e dc 34
       0.00017819011 0.00020425036 7.045097e-06 4.104668e-07
000360 0c 24 10 ba a7 17 e1 37 92 52 98 38 cc cf a9 b6
       -0.00054985355 2.6833104e-05 7.263305e-05 -5.060783e-06
000370 e6 45 0d 3a 60 03 3c 38 fe 00 03 ba 81 5b 77 37
       0.0005389139 4.4825836e-05 -0.0004997401 1.4743652e-05
000380 d4 8f 12 3b 54 d8 04 3a 07 2b 39 37 a1 a0 d2 b7
       0.002236356 0.0005067636 1.1036877e-05 -2.510875e-05
000390 ad 9c 3b 39 32 8e 9e b9 95 f3 8c 39 93 05 41 3a
       0.00017892076 -0.00030242052 0.00026884364 0.00073631963
0003a0 1e 1f 55 ba 78 33 9b 38 eb 3f 6a b6 2a 92 46 3a
       -0.0008129942 7.400563e-05 -3.4905922e-06 0.0007574881
0003b0 dc db e8 39 d0 a1 83 3a 89 6b a3 37 95 8a 71 3a
       0.00044414296 0.0010042731 1.948119e-05 0.0009214071
0003c0 fd f3 8e ba ac a9 1d b7 35 13 29 38 08 ac 39 38
       -0.0010906454 -9.397434e-06 4.0310628e-05 4.4267654e-05
0003d0 ed 79 2f ba 36 66 22 3f f8 ad 5a 3f ab 54 37 3a
       -0.00066938886 0.6343721 0.85421705 0.00069935125
0003e0 08 cc b4 38 ff bb 91 bb 82 79 1d 3a 26 b2 fd 3e
       8.6210726e-05 -0.0044474597 0.0006007181 0.4954998
0003f0 6e eb 9a 3a 34 3d ac ba 74 8c 81 ba 22 35 58 ba
       0.0011819431 -0.0013140799 -0.0009883777 -0.00082476635
